checkpoint.pth (torch_old, 28463 bytes, 6 tensors)

fc1.weight f4 [64, 37]
00000000: 4b40 94be caf3 a53d ca94 5f3d 1316 9abd
00000010: e9c9 8abd d551 56bd 4b3a 223e 8a12 053e
00000020: bbb1 613d ae98 10be 01b4 14be a945 dc3d
00000030: 8376 efbd 6e98 40be ea2c a13d 4f84 2e3c
00000040: 6599 133e 2b03 ad3d 490f 3cbe 89ea 473d
00000050: 08bb ca3d ff60 d73d a3b9 913c 978d d03d
00000060: 583d 033d 6772 803d 32cc 3e3d 7f0f 16be
00000070: b511 f6bd 12bd 91be 4041 3abc a079 1a3e
00000080: 9fcb a2bd 387b 75be 5bb1 96be b14c 5fbb
00000090: adab 86bc d1fc 053e 3bc7 ae3c 1a48 be3d
000000a0: 35a7 07be 2f5e a5bd 3781 ac3c c7b2 3cbe
000000b0: 1dbd 43be d098 22be 8f11 85bd 636d 973c
000000c0: ea2b 6dbe c186 a1bd 7617 a23e dbeb 70be
000000d0: c2de 0c3e 24ba 6cbe 06dd a43d a3fc 97be
000000e0: 53e1 73be d968 02be b23f 1cbe 81e1 1dbd
000000f0: 365b 0bbe 56a7 7ebd 3db3 e6bd e958 03be
00000100: 54c9 a93d 528c d9bc 7999 e03d 491f 35bc
00000110: 2389 b2bc 1417 343e 08c9 1abe c854 f7bd
00000120: fff3 083e d291 b3bb a88c 9b3e 19c1 323d
00000130: c989 653d 0a12 c1bc d3aa b7be 8c98 09bf
00000140: fd30 e73d 53ce 1b3e 2cdb 35bd 3c6f 17bf
00000150: a3e6 9e3d 2c61 15bd b3f2 6b3d 994e 093c
00000160: 2d83 c43d c354 fcbd acb3 353e 4cd4 c63b
00000170: 8be3 853e 9dbe 093d bad4 08be 791f a53d
00000180: f257 093e 8a2a b23c 2725 0a3e adcc bdbd
00000190: c74d 7c3e aa0a 303e 78b2 b4bd 6433 98be
000001a0: 6940 dabe e859 833d 67fa ad3d 6964 ccbd
000001b0: 9cd1 a2be 788a c2bb b40b 06bc 5674 d43e
000001c0: abe3 1cbf 50c9 b6be 7efb 99be 4134 fdbf
000001d0: 04e9 49bd 9de4 16bc 8e48 553c f261 1a3d
000001e0: a4bc 413d 44a3 1fbc 7a9d 6c3c f6b0 a83c
000001f0: 3fb7 15bd 8c20 b13c 422d 80bd 73e2 923d
00000200: 2a33 20bc 3bce 0a3c 91fc 0f3d 5beb cfbc
00000210: 31cb b239 11b3 423d 8f18 7d3d a2b2 2a3d
00000220: a6d3 213d a2ab b13d 54e1 873d a80e 5d3e
00000230: cf75 fc3d 7dcc bd3d 1140 8b3d 9477 b63d
00000240: 4082 7f3b 651e e7bd 0067 49bc bb3f 9b3b
00000250: 3462 02be 320a 2b3c 36ed 26be 1a26 06be
00000260: 2e74 6a3d edee b03e 900c 1fbf d70f afbe
00000270: 5cd7 a0be 03fd dfbf 147f 00bb 26cc ad3d
00000280: 0dd5 293d ea05 dabd 2e33 13be 2130 05be
00000290: 727c 923a fd26 8bbb 1322 bc3d ab26 603e
000002a0: bacb 56bd 7296 923d b5a6 f83d 66f6 cf3d
000002b0: b84d 433e 4495 a03c 6b1d 8b3d 329b 683d
000002c0: eadb 62bc 85c4 a7bd f09a ad3d aa7b 493d
000002d0: 6bf1 893d b175 a03d be57 c9bc 928d e13a
000002e0: 6962 893b 66ca 593d 7a43 efbc 5af1 113d
000002f0: 9bbd 90bc 7925 0c3d 8d0f cd3e 4608 97bd
00000300: d5f0 97be 81aa d0be 5a21 bfbf fc73 8dbd
00000310: 5587 d13a 025c 7a3d 52a6 3ebd 8e28 18bc
00000320: 4d6d aa3c 56bb 5c3d b56e 213d 6fc9 09bd
00000330: 7410 c4bc fabd 003e dff0 ee3d 0b0d c13d
00000340: 59e5 0b3e b476 ef3d 16d5 f0bb 7290 11bd
00000350: 368b fb3d 8899 1e3e 1639 0d3e 74dd 8a3d
00000360: ee93 5ebd 9fba 493d 3dd4 553d 217f bebd
00000370: dd48 9c3b 0601 0c3b 0dc4 143c fd27 b33d
00000380: b303 45be db92 ea3d 8427 f33d 7c1d bcbb
00000390: 69c8 0abe fa30 a43c 5178 64bd 6202 0b3e
000003a0: d5ce 9e3e 4ebd 3bbe 4c2a 02bd c68f 71be
000003b0: f8fe 54bf 36d3 c7bd 6d79 89bd 0edf 8e3d
000003c0: 153e c53c e300 86bc 322c 80be c437 c53d
000003d0: 19dd ee3d 0cf6 0e3d 6af9 9f3e a12e 0fbe
000003e0: 20e9 c33d 98ea 8bbd 3b4d d1bb 5bba 233d
000003f0: a6c3 993d f87f 95bd 52b9 2abc 5f85 a0bd
-0.28955302 0.0810314 0.054585256 -0.075237416 -0.067767926 -0.052324135 0.1584255 0.12995353
0.055101138 -0.14120743 -0.14521791 0.10755474 -0.11692526 -0.18808147 0.07869895 0.010651662
0.14413984 0.0844787 -0.18365206 0.048807655 0.09898955 0.105165474 0.017788714 0.10183256
0.032040924 0.062718205 0.046581455 -0.14654349 -0.12015096 -0.28464562 -0.011368096 0.15085459
-0.07948994 -0.23972785 -0.29432186 -0.0034072811 -0.016439283 0.13084723 0.021335235 0.09291096
-0.13247378 -0.08074605 0.021057708 -0.18427573 -0.1911511 -0.15878606 -0.0649749 0.018484777
-0.23161283 -0.078870304 0.31658524 -0.23527472 0.1375685 -0.23117882 0.080499694 -0.29684934
-0.23816423 -0.12735309 -0.15258673 -0.038545135 -0.13609013 -0.062171303 -0.11264656 -0.12826885
0.082903534 -0.026556168 0.109667726 -0.011054822 -0.021793908 0.17586929 -0.1511575 -0.120767176
0.13374327 -0.0054800296 0.3038075 0.043641184 0.056039605 -0.023568172 -0.35872516 -0.53748393
0.11288641 0.15215425 -0.04439847 -0.59154105 0.07758834 -0.036469623 0.057604503 0.008380556
0.09595332 -0.123208545 0.1774432 0.006067788 0.26150164 0.03362905 -0.13362399 0.080626436
0.13412455 0.0217488 0.13490735 -0.092675544 0.24639045 0.17191568 -0.08823103 -0.29726708
-0.42627266 0.06413633 0.08495026 -0.09980089 -0.31800544 -0.005936917 -0.008181501 0.41495007
-0.61284894 -0.35700464 -0.30074686 -1.9781572 -0.049294487 -0.009209779 0.013017787 0.037691064
0.047299042 -0.009743515 0.014441842 0.020592194 -0.03655171 0.021621965 -0.06258632 0.07172098
-0.009777823 0.008472021 0.035152975 -0.02538078 0.00034102195 0.047534052 0.061791 0.041674264
0.039508484 0.086753145 0.06634775 0.21587622 0.12327158 0.09267519 0.06799329 0.089095265
0.0038987547 -0.11285094 -0.0122926235 0.004737822 -0.12732774 0.0104394425 -0.16301426 -0.13100472
0.057239704 0.34557286 -0.62128544 -0.34191772 -0.31414306 -1.7499088 -0.0019606994 0.08486204
0.041462947 -0.10645659 -0.14374992 -0.13006641 0.0011176004 -0.004246591 0.09186187 0.2188975
-0.052440383 0.071576014 0.12141172 0.10154419 0.19072616 0.019602425 0.067927204 0.05678863
-0.013846377 -0.0819178 0.084768176 0.0491902 0.067355 0.07834948 -0.024577972 0.0017208329
0.0041926396 0.053171538 -0.02920698 0.03563056 -0.017668536 0.034215424 0.40050927 -0.07374625
-0.29675928 -0.40755084 -1.4932053 -0.06906888 0.0015985767 0.0611229 -0.046545334 -0.009287013
0.020804072 0.053889595 0.03941222 -0.033639368 -0.023933627 0.1257247 0.11667036 0.09426316
0.13661708 0.11692563 -0.0073496206 -0.035538144 0.12282412 0.15488255 0.13791308 0.0678052
-0.054340295 0.04925024 0.05220436 -0.09301592 0.004769428 0.0021362915 0.009079945 0.087478615
-0.19239692 0.11453792 0.118727714 -0.0057408195 -0.13553013 0.020042885 -0.055778805 0.13575128
0.31017175 -0.18333933 -0.03177862 -0.23590001 -0.8320155 -0.09757082 -0.06712613 0.06976138
0.024077455 -0.016357845 -0.25033718 0.09629777 0.11663265 0.034902617 0.31244975 -0.13982631
0.095659494 -0.068318546 -0.0063873804 0.039972644 0.0750802 -0.07299799 -0.01042016 -0.078379385

fc1.bias f4 [64]
00000000: 1ce1 d23d 61cb babd c4e3 32bd 05f2 25bd
00000010: c92c 413e ab1b a13c c339 5bbd f391 273d
00000020: 79a7 fd3c 17d1 73be 3306 8a3e 4e81 223e
00000030: aeb3 113e 5670 e63d fb1e d43a ecdc 753c
00000040: 953d 943c b4e5 afbc 3ea9 3d3c 8d79 4bbe
00000050: 10c8 03be 0d2e cb3d 4420 483d ccdf b0bd
00000060: 4f64 9bbd 38f0 af3d 26b3 6cbd f4a9 42be
00000070: ded8 c53d 789f e63d db46 0ebe 7c4e 6fbe
00000080: c7a6 023e cf67 753d 6c52 8ebb f638 803d
00000090: 0e9c 91bc 6053 203d facd 00ba e797 b4bd
000000a0: 3968 ebbd 3448 99bd 600f 14be 09c7 593e
000000b0: 1f44 16bc 0c92 ebbd 3e57 4c3d 713c 4cbe
000000c0: 9740 21be 00d4 c43d 4110 39be ac77 043d
000000d0: a8e2 14bb 8435 8bbd a973 32be 2066 f13a
000000e0: 2476 ed3d 998d 81bd f1e2 1cbe 0400 52bd
000000f0: f5dd 0dbd 96cf e53c 7d0a 963c 8f0f 46bc
0.102968425 -0.09120823 -0.043674245 -0.04051401 0.1886474 0.019666513 -0.053521883 0.040910672
0.030963646 -0.2381023 0.26957855 0.15869638 0.14228699 0.11251895 0.0016183549 0.015006285
0.01809577 -0.021471836 0.011575995 -0.19870587 -0.12869287 0.09920893 0.048858896 -0.08636436
-0.07587492 0.0859074 -0.057788037 -0.19010144 0.09660505 0.11260885 -0.13894217 -0.23369783
0.12758933 0.059913453 -0.0043433215 0.062608644 -0.017774608 0.039142013 -0.00049135054 -0.088180356
-0.11494488 -0.07484475 -0.1445899 0.21267332 -0.009171515 -0.115024656 0.049887888 -0.19944932
-0.15747295 0.09610748 -0.18072607 0.03234069 -0.0022718105 -0.06797317 -0.17426933 0.0018417276
0.11594799 -0.06325836 -0.15320946 -0.051269546 -0.034635503 0.028053086 0.018315548 -0.01208867

fc2.weight f4 [64, 64]
00000000: 0663 a2be c784 863e 378a b03c 02d5 3e3e
00000010: a2a0 3ebe b1aa f2be fc2c 7ebe 56b7 acbe
00000020: 1e9b 86bc 0677 83be f26f 87be 74ff a7be
00000030: 68c6 a4be e9bb eb3d 4651 98be 41e4 7fbe
00000040: 1e5e aabc 22f5 5b3d 9048 0a3e 2ce2 713e
00000050: 6fb9 9fbe f314 bbbe de78 123e 081b 0dbe
00000060: 8a7a a6be 8f69 80bd 27d1 123d 9070 a03d
00000070: 58fb 58bd 2993 c5bd 0bc2 06be 8678 403d
00000080: 7cb4 473e c86e 143e 5c90 cfbd 9d2f 1b3e
00000090: a739 14be 8383 a9bd 7e48 8abe 6aa3 57bd
000000a0: c165 a9be a980 adbe 16b9 a23d 31ae d8be
000000b0: d3f3 6a3e 401a a5be b061 a7be a9b1 b83c
000000c0: 0220 61be ea51 383e 0d53 83bd ecf2 83be
000000d0: c772 f9be c68d ffbe 1bd8 c23e e399 f4be
000000e0: 5cdf c3be f3ee 3abd 178a 4fbe 7e0f d3be
000000f0: de76 ebbe d930 783e 34c8 8fbe 2915 223e
00000100: 9dba fa3d 1b7f 5c3c fafc 83be 813f 093d
00000110: 91c2 a83e 173d 503e 865b b3be d15f 59bd
00000120: 46e3 3c3c be3c 293d aedb 183c a56c 3a3e
00000130: 384b 28be 6223 a43d 179d 203e a535 9fbd
00000140: ea2e 203d 2c9e 41bd 4778 b9bd 524c ce3d
00000150: 74cc a83d 7b08 09bf fefa edbc 01dd 7ebe
00000160: cc8d 5b3e 8c19 293e 33e9 a2be defb 803d
00000170: 2481 0c3e d4c1 86bd 7153 4c3d 9e97 a6bb
00000180: 41cc 51bd 5030 473d 20ca 8ebd 9ba8 3b3e
00000190: 4774 73bd fa18 52be c82c a43d 9f5e 99bd
000001a0: 269f 2d3d 95c6 4dbe 0ed5 8cbc 5790 eebd
000001b0: 35db 5abe db29 efbd 294f 0ebe 46d3 82bd
000001c0: eedd edbd 95ae 0fbe d1c0 d8bc f009 943d
000001d0: 2bc6 c0bc c51f 543e f6ae 8abd be32 2c3e
000001e0: 7174 0ebe c4ca a03c e7ea 263e 0842 283d
000001f0: e878 bcbe 1893 4fbe d8e1 043d 4721 e4bd
00000200: 5961 b3bc d31f e2bd ee6d a3be bb77 03be
00000210: 9c97 713e 30a8 e23d 0daf 85bd 650a 84bd
00000220: cb49 e93d 63ff 3ebd a4b0 4a3d e084 a03d
00000230: d694 07bd 4cc9 683e f67f c2bd 434e c33d
00000240: ffc0 b0bd 5c44 323d 9a85 633c f21f 51bd
00000250: 51f9 a6bd a69c 533e f404 df3c 8d3e 0bbb
00000260: e160 883e 082c cf3d 81c8 813d f2e4 1c3d
00000270: 85cf 11bc f6dc a13e ce9b 17be c46a 1bbe
00000280: 79c7 05be 3ff3 373d 1926 ffbd 6a8d 263e
00000290: d01f 283e b0ee 0c3e 2251 683e 82f1 1d3c
000002a0: 73a1 353e d980 24be a787 6b3b f896 04be
000002b0: 5919 13bd 64b9 a3ba 62aa 043e 2cd9 26bd
000002c0: 098e 063d 13f9 c9bd 6e35 72bc 1882 1c3e
000002d0: 7d87 00be 3af3 2f3e 15bc 39be f9c1 a73d
000002e0: d1ab ce3c 66a2 2bbd 8d5f 1e3e 9a5b c0bb
000002f0: 6803 c33c a825 243e c233 6d3e d208 ee3c
00000300: fea5 493d 6b7b 4ebd 6374 a4bd 4249 23be
00000310: 59d0 d2be 6350 babe 54e6 063e b782 89bd
00000320: 5f0d 85bd f41a 843d 8b40 a43c 4490 6dbe
00000330: 7b23 08be b3a9 5a3b 6d17 bc3d cec0 35be
00000340: 12f6 363c 7574 b93d 711f 6bbd 0462 bebd
00000350: 3dbc 0c3e 7ba0 d4be 07fa b03b b503 503d
00000360: 2163 ecbe ff56 86bd 425d ac3a 8b3d c63c
00000370: 9f6c 093e 44e1 ee3e db0d 383e 6dd4 ebbd
00000380: 32b0 4c3d 2457 0b3e 98b8 673d 45df 9d3d
00000390: 62df 8abd 910d 4bbe 6cde 0d3f d810 cc3d
000003a0: 0243 f6bb d439 73bd fe3b 903c 8867 56be
000003b0: 34f9 903c 1e1c 0cbe 9471 39bd 42c5 3dbe
000003c0: a517 a0bd e169 493d d887 c2bd cb65 c53e
000003d0: 973e 353d d252 b5be 6f9e 1dbd 0e72 733e
000003e0: 1f71 8ebe 68f5 06be ecd6 8bbe 47cb bc3d
000003f0: e0dc 87be 0b6e c4be dd87 8abe 0734 54bd
-0.31716174 0.26273176 0.021550281 0.18635944 -0.18615964 -0.47395852 -0.24821848 -0.33733624
-0.016431388 -0.25676745 -0.26452595 -0.32812083 -0.32182622 0.115104504 -0.29749507 -0.24989416
-0.020796832 0.053700574 0.13504243 0.23621434 -0.31196162 -0.3653942 0.1430392 -0.13779843
-0.32515365 -0.06270134 0.035843994 0.078339696 -0.052974075 -0.09647209 -0.13159959 0.04698994
0.19502443 0.14495385 -0.10134956 0.15154882 -0.14475118 -0.08277037 -0.27008432 -0.05264608
-0.33085445 -0.33887222 0.079454586 -0.42320397 0.22944574 -0.3224659 -0.32691717 0.022545652
-0.21984866 0.17999998 -0.06412325 -0.25771272 -0.4872038 -0.49912852 0.380555 -0.47773656
-0.38256347 -0.045638036 -0.20267521 -0.41222757 -0.45989126 0.24237384 -0.2808243 0.15828384
0.12242625 0.013458039 -0.25778943 0.033507828 0.32960942 0.20335804 -0.35030764 -0.053069893
0.011528796 0.041317694 0.0093297195 0.18205507 -0.16434944 0.08014561 0.15684925 -0.07773904
0.03910724 -0.047269985 -0.09056144 0.10073151 0.08242121 -0.53528565 -0.029050346 -0.24888994
0.2144081 0.16513652 -0.31818542 0.0629804 0.13721138 -0.065799385 0.049884263 -0.005083992
-0.051220182 0.04863006 -0.06972146 0.18326037 -0.059437063 -0.2051734 0.08016354 -0.07488751
0.042388104 -0.20095284 -0.017191436 -0.116486244 -0.21372683 -0.11677905 -0.13897385 -0.063879535
-0.11614595 -0.14031442 -0.02645913 0.07228458 -0.023531994 0.20715244 -0.067716524 0.16816232
-0.13911606 0.019627936 0.16300546 0.041078597 -0.36810994 -0.20270956 0.032441944 -0.1113916
-0.021897005 -0.11041226 -0.31919807 -0.12838642 0.2359299 0.110672355 -0.06527529 -0.06447295
0.11391028 -0.046630275 0.049484864 0.07837844 -0.033100925 0.22733039 -0.09497063 0.095364116
-0.08630561 0.043522224 0.013886834 -0.051055856 -0.08153022 0.20665225 0.027224042 -0.0021247
0.26636413 0.1011582 0.06337071 0.038304277 -0.008899574 0.31613892 -0.14805529 -0.15177447
-0.13064374 0.044909712 -0.124584384 0.16264883 0.16418386 0.13762927 0.226872 0.0096400995
0.17737369 -0.16064776 0.003593901 -0.12948215 -0.035912845 -0.0012491164 0.12955621 -0.040734455
0.0328503 -0.0986196 -0.014783246 0.15284002 -0.12551685 0.17182627 -0.18138154 0.08191294
0.025228413 -0.041902922 0.15466137 -0.0058702948 0.023805335 0.1602999 0.23164275 0.02905694
0.049230568 -0.05041067 -0.080300115 -0.15945914 -0.41174582 -0.36389455 0.131738 -0.06714385
-0.06496691 0.064504534 0.020050308 -0.23199564 -0.13294785 0.0033365309 0.091841556 -0.1774933
0.011167066 0.090554155 -0.05740303 -0.09296039 0.13743682 -0.41528687 0.0054008993 0.050784785
-0.4616938 -0.06559562 0.0013150352 0.024199268 0.13420342 0.4665624 0.17974035 -0.115151264
0.04997272 0.1360746 0.056572527 0.07708601 -0.06780888 -0.19829394 0.55417514 0.0996415
-0.007515312 -0.05938132 0.017606732 -0.20937932 0.017696954 -0.13682601 -0.045274332 -0.18532279
-0.0781701 0.04917324 -0.094985664 0.38554224 0.044249143 -0.3541475 -0.038481172 0.23773977
-0.2782068 -0.13179553 -0.2731241 0.092184596 -0.26535702 -0.38365206 -0.2705678 -0.05180743

fc2.bias f4 [64]
00000000: c8d4 95ba 3410 7dbd edbf 5c3e ff42 4c3d
00000010: cdb5 0c3e 0edf dbbd 23cd ca3b 8dc6 84bd
00000020: 8555 0d3e 391e da3e 3498 a4bd cbf1 8e3e
00000030: 4e2a 673e c0cb 44bd 00cf b6bd 0615 b6bd
00000040: dc6b e1bc 00e0 52bd 187d a7bd 5c24 153e
00000050: 5d4b a83e 477a c43e 6bcc 14be b015 77bb
00000060: 8b5a 43be 10ed fabd 41a3 a53c 7b58 f6bd
00000070: f43b cbbd 8730 593e 1ff0 aa3d fb3d 6fbd
00000080: 183f a83c a2d6 153e 1710 92b9 b778 3cbd
00000090: 2a37 26be 4aad 8fbd 268a 183e 9429 21bd
000000a0: 50e0 2cbe 9b3f 023f 6aa9 a13e 8e2e e7bc
000000b0: d9d1 963d fc74 e6bd 5223 933e 5369 a5bd
000000c0: e065 883d d5ad f1bd aa4e 05be cc01 c03e
000000d0: 1cc3 5f3d c248 6dbd ab36 90bd 254e 78bd
000000e0: c9a1 54be 747f 2cbe ab71 a83d 3c47 17be
000000f0: c181 e03c 1689 9b3e 61e4 5e3d c92f 9dbd
-0.0011431212 -0.06178303 0.21557589 0.04986858 0.13741226 -0.10735904 0.006189005 -0.06483183
0.13802154 0.42601183 -0.08036843 0.27918848 0.22574732 -0.048045874 -0.08926201 -0.08890729
-0.027517252 -0.051483154 -0.081781566 0.14564651 0.32869998 0.3837454 -0.14531104 -0.0037702136
-0.19077508 -0.12252247 0.020219447 -0.12028595 -0.099235445 0.21209918 0.08346581 -0.05840872
0.020537898 0.14632657 -0.00027859278 -0.04601356 -0.16231981 -0.07015474 0.1489645 -0.039346293
-0.16882443 0.50878304 0.31574565 -0.028220441 0.07364244 -0.11252782 0.28737885 -0.080767296
0.06660056 -0.11800734 -0.13018289 0.3750137 0.05462943 -0.057930715 -0.07041677 -0.0606214
-0.20764841 -0.16845495 0.082248054 -0.14773268 0.027405621 0.30378026 0.054417018 -0.0767513

fc3.weight f4 [4, 64]
00000000: 325f 1fbe 556e 983d 9fae 4f3e 1fd9 ee3e
00000010: b27b 953e 397a 253e eff1 773e db0d 5cbe
00000020: c03e 013e d48b 023e 5d9e 37be 0ea1 943e
00000030: 125f 3d3d 525a 82be 3050 1cbd ea26 5ebe
00000040: dc89 c6bc bbe8 e13c 0ecb 9f3e ae02 273e
00000050: 79b7 103e 0745 113e 8435 9f3d cec6 133d
00000060: d53f 9fbe c804 7cbd a369 37be 2d93 4abe
00000070: fddb c2bd 491e 6f3d 6d1e dcbe 4eeb 493d
00000080: 7f21 b63d 8495 0d3e a729 063d 56c1 793e
00000090: c655 9ebc a093 073d 4e48 9a3d 35b5 993e
000000a0: 449c 7c3d 59cf 2e3e 815e a43d 758e 213d
000000b0: 63ce fb3d 2847 80bc 9d23 3c3e e7f0 d13e
000000c0: 81bf 2d3e 1f5d 8b3c 737a 08be 85f4 333e
000000d0: 2df4 053e 5fab 453e 72d5 bdbd ae09 82bc
000000e0: dc03 a4be 0e98 263c 1d94 bd3e 8604 7f3e
000000f0: f22b d8bd e1c9 4e3e a231 a7bd ff4a 0a3e
00000100: 64ac c93d 30ce 113d 1ca6 f03d bbdb 5e3e
00000110: dcb4 6a3e 1d13 ae3e 0478 bb3e 8d89 62bd
00000120: e031 853d 0614 fa3d e72b 99bc 9f6e 3e3e
00000130: ac88 c1bc 4287 95bd 506d 78bc 3c5a 47be
00000140: cb0f c3bd a5e3 8fbc fa0c 6e3e 57b9 3c3e
00000150: c8ed 0b3e 1a4c 493e 2ac0 fdbd 83db 443d
00000160: 89fa 3ebe 9fab 06bd 28ae 6cbe 85f3 0dbe
00000170: 29f9 90bd 0c54 ab3d ffbb 5b3d 0582 163e
00000180: c8a7 c73d a962 cb3d f6c8 023e 3639 693d
00000190: 6020 edbd bf6a 323e 0380 e83d ca4b 9e3e
000001a0: cdce 17be 7c10 4a3e 1b09 f33d b4e5 75bd
000001b0: 175d b93d 7d04 3c3e 60aa 1c3e 7641 e23e
000001c0: dc0b b43e 6270 813d 1908 e7bd af8d 053e
000001d0: de83 4f3e a1e6 633e 2ea4 b7bd f324 733d
000001e0: e391 6bbe ae48 03bd 424e 8f3e d374 b7be
000001f0: 5e08 fabd 458d 2d3d 28ae bebd 1b17 843d
00000200: 58d0 783e 5cd4 1a3e b91e 333e 0459 b53e
00000210: c9d9 4e3e fe68 2bbd ba69 f23b 40e6 5abd
00000220: 908f 65bd 0270 023e 7354 f7bd 713e 4c3e
00000230: 1c5b 1b3e e55b 84be daf3 6fbd 4b9a 03be
00000240: 9cb1 003d 1e7f 7ebe 4359 4b3e f92a 093d
00000250: 71e9 ba3d 9397 513e f5c3 43be 7600 313e
00000260: 04c4 b3bd 3338 2abd 2eeb 4fbe b616 103c
00000270: 980b 973e 95e5 313e 008f fdbd 38a6 273e
00000280: 9022 c33d aa10 393e a519 603e ba97 723e
00000290: 34aa 0bbe 23cb 7a3e c197 d83d f123 3e3e
000002a0: f65d 943e 89c3 263e 8d75 203e 39c3 973d
000002b0: 2903 3e3e 15da 2f3d 1be0 153e 5d57 413f
000002c0: 35f7 aa3e 950e 933e a814 3cbd bc19 6b3e
000002d0: b97d 4d3d 4af5 1cbe fc8a 4ebe 9147 0e3e
000002e0: 16a9 78be 0952 abbd 7025 123e 8d50 b7bd
000002f0: 1f39 11be fb6c eb3d ff80 53be 340e f53d
00000300: 8711 583e df72 bc3e 8d84 b83d b73c 113e
00000310: 8d15 073e 5785 933e 0f71 1cbd f95e 88bd
00000320: 3c0f f63d 4951 573e 38bd a73d 8142 1e3d
00000330: 87fb e93d 1814 bcbd 00be 723d 252d 0abe
00000340: 7270 f03d 3dbc d0bd 43c0 e63e ecfd 0c3e
00000350: e89f 023e bf35 853e 025b e5bd 02f4 773d
00000360: 53c7 27be 6326 a7bd 0259 aebd e0a3 0fbe
00000370: ee8b 2b3e 8401 543c bfb0 07be d332 293e
00000380: 6ca6 6ebd e13d 3e3e 8fbe 5c3d c958 893d
00000390: b50f 56be 3e34 813e f25d 3a3e af3c 093f
000003a0: 6473 53be e2e0 683e 2ad8 123e cac2 70be
000003b0: 955f 8d3e 0e93 b8be c235 d83d c380 9ebd
000003c0: 9da5 8f3e 0a21 8e3e cecf 093e 8365 753e
000003d0: f6cb 793d 191f 9d3e 6481 e23d 8ee4 033e
000003e0: 56db 14be 331b 94bd 42aa 2c3d 3b82 66be
000003f0: e5f0 87be 2f69 733d ab0d 01bd 36b4 813e
-0.15563658 0.07442919 0.20281456 0.46650025 0.29195935 0.16159905 0.24213384 -0.2148966
0.12621593 0.12748653 -0.17931505 0.29029125 0.046233244 -0.25459534 -0.03816241 -0.21694532
-0.024235658 0.027576795 0.31209606 0.16309616 0.1413249 0.14186488 0.07773879 0.036078267
-0.31103387 -0.061527997 -0.17911391 -0.19782706 -0.09514616 0.05837849 -0.42991963 0.04929667
0.088931076 0.13826567 0.032754567 0.24390158 -0.01932801 0.03309977 0.07533322 0.30021062
0.061672464 0.17071284 0.08025838 0.0394425 0.122952245 -0.01565893 0.1837296 0.41004106
0.16967584 0.017012177 -0.1332796 0.17573746 0.13081427 0.19303654 -0.09269227 -0.015873756
-0.32034194 0.010168089 0.37027064 0.2490407 -0.10555257 0.20194198 -0.081637636 0.13505171
0.09847334 0.035597026 0.11750433 0.21763508 0.22920555 0.33998957 0.36615002 -0.05530696
0.065036535 0.122108504 -0.018697692 0.18596886 -0.02362474 -0.07301189 -0.015162781 -0.19468015
-0.09524497 -0.017564604 0.23247138 0.18430077 0.13664925 0.19657937 -0.12390168 0.048060905
-0.18650259 -0.032878514 -0.2311331 -0.13862427 -0.070787735 0.0836564 0.053646084 0.14698036
0.097487986 0.09930927 0.12771973 0.056939326 -0.11578441 0.17423533 0.11352541 0.30917197
-0.14824982 0.19732851 0.11866971 -0.060033515 0.090509586 0.18361087 0.15299368 0.44190568
0.35165298 0.063202634 -0.112808414 0.13042329 0.20265147 0.22255947 -0.08966862 0.05936141
-0.2300487 -0.032051735 0.27989393 -0.35831317 -0.12208627 0.042371053 -0.093105614 0.064497195
0.24298227 0.15120071 0.17492189 0.35419476 0.20200266 -0.041848175 0.0073978575 -0.05344224
-0.056045115 0.1273804 -0.12076654 0.19945695 0.15171474 -0.2585136 -0.058582164 -0.12851827
0.03141938 -0.24853179 0.1985827 0.033488248 0.09126557 0.20467977 -0.1911772 0.17285332
-0.087776214 -0.041557502 -0.20304558 0.008794477 0.29501033 0.17372735 -0.12380791 0.16372001
0.09528077 0.18072763 0.21884783 0.23690692 -0.13639146 0.24491553 0.1057582 0.18568398
0.28977937 0.16285528 0.15669842 0.07410283 0.18555893 0.04293259 0.1463627 0.7552393
0.3339173 0.28722063 -0.045918137 0.22959036 0.050168727 -0.15327945 -0.20170206 0.13894488
-0.24283251 -0.08365256 0.14272094 -0.08950911 -0.14181946 0.11495396 -0.20654677 0.119656
0.21100436 0.3680639 0.09009657 0.14183317 0.13191815 0.28812668 -0.03819376 -0.066587396
0.120146245 0.21027102 0.081903875 0.03863764 0.11424928 -0.0918352 0.05926323 -0.13493784
0.11740197 -0.101921536 0.4506856 0.13768739 0.12756312 0.26017568 -0.11198999 0.06053544
-0.1638463 -0.081616186 -0.08513071 -0.14027357 0.16752598 0.0129398145 -0.13251017 0.16523294
-0.05826418 0.18578292 0.05389267 0.067063875 -0.2090443 0.2523517 0.181999 0.5360822
-0.20649487 0.22742036 0.14340273 -0.23511806 0.27611986 -0.36049694 0.105571285 -0.07739403
0.2805604 0.27759582 0.13458177 0.23964505 0.060985528 0.30687788 0.110598356 0.12880155
-0.14536795 -0.0723175 0.042154558 -0.22510616 -0.26550975 0.059426483 -0.031507175 0.25332803

fc3.bias f4 [4]
00000000: 09f8 8e3e 0ae4 8c3e 5b23 4b3e bbd9 283e
0.2792361 0.2751773 0.19837706 0.16489308
